pygame 1.9.6
Hello from the pygame community. https://www.pygame.org/contribute.html
_________________________________________________________________
Layer (type)                 Output Shape              Param #   
=================================================================
input_1 (InputLayer)         (None, 11)                0         
_________________________________________________________________
dense_1 (Dense)              (None, 256)               3072      
_________________________________________________________________
dense_2 (Dense)              (None, 512)               131584    
_________________________________________________________________
dense_3 (Dense)              (None, 1024)              525312    
_________________________________________________________________
dense_4 (Dense)              (None, 2048)              2099200   
_________________________________________________________________
dense_5 (Dense)              (None, 1024)              2098176   
_________________________________________________________________
dense_6 (Dense)              (None, 1)                 1025      
=================================================================
Total params: 4,858,369
Trainable params: 4,858,369
Non-trainable params: 0
_________________________________________________________________


# Session: 0 Epsilon: 0.9 >>>>>>>>>>>>>>>>>>>>>>>>>>>>>>>>>>>>>>
